assets/models/mobilenetv2_speedlimit.onnx (onnx, 144335 bytes, 13 tensors)

classifier.1.bias f4 [11]
00000000: 4e29 243c 4813 38bc d66c 56b9 7cb9 2f3c
00000010: f0e1 68bb 6d1e c13c ba55 7a3c c35b 8f3b
00000020: 3f73 d93c 488a 06bd 73ad 0bbd
0.010019613 -0.011235066 -0.00020449175 0.010725375 -0.003553506 0.023574078 0.015279228 0.0043749525
0.026544211 -0.03284672 -0.03410096

input_bias f4 [32]
00000000: eead cebd 318c 143f 240c b53e e84b 8b3e
00000010: 9911 6a3f 7eb4 373f b7ba fd3e dd3e 2b3f
00000020: 7a1a 1f3f 2856 9a3b dd7a f7be 7b5a 803f
00000030: bfca e53e 77d6 86be 098d 7d3b 30b0 263c
00000040: bde7 16bd 634c a2bc 0d1e bc3e f15c 3d3e
00000050: f0f7 cebe bf68 e53e 4618 1a3f 0510 67bc
00000060: 9aa6 28bf 7291 043f ecb7 dcbe c118 0a3f
00000070: 2051 87be d15b 31be ca3c 0d3f d690 a73e
-0.10091768 0.58026415 0.35360825 0.2720635 0.914331 0.71759784 0.49556515 0.66892797
0.62149775 0.0047099777 -0.48335925 1.0027612 0.44881245 -0.263355 0.00386888 0.010173842
-0.036842097 -0.019811815 0.36741677 0.18492486 -0.40423536 0.44806477 0.6019329 -0.01410294
-0.65879214 0.5178443 -0.4310907 0.5394402 -0.2642908 -0.17320181 0.5517088 0.3272769

hardtanh_bias f4 [32]
00000000: eee8 42bc d444 743f 5096 03bf 6de8 c43e
00000010: 96b8 893e 6261 4f3f 729c 563f 2099 d73e
00000020: 3672 8b40 27bd 98bb e1ea a53e 1941 b43e
00000030: 8c35 233f 4558 d6be 02ba b9bb 1a36 b5bb
00000040: 133d 093c d32b 5c3c a859 ec3c e92d 163e
00000050: 9b66 a3be 9e52 cd3f 52ab 663f 0ac5 9a3a
00000060: d57b 433f 0c5d 72bf 82a1 cbbe 41d0 633f
00000070: 9465 2e3f 669a a23e ec58 7c3f 6b50 49be
-0.011896355 0.95417523 -0.51401234 0.38458577 0.2689864 0.8100797 0.83832467 0.42109013
4.357692 -0.0046612206 0.3240576 0.35205916 0.6375358 -0.4186422 -0.005667926 -0.005530131
0.008376378 0.013438183 0.028851345 0.14665951 -0.3191422 1.6040838 0.90105164 0.001180799
0.7636083 -0.9467323 -0.39771658 0.88989645 0.68123746 0.31758422 0.98573184 -0.19659583

hardtanh_1_bias f4 [16]
00000000: 1151 0cc0 0102 183f 75b4 c7bf 7ab8 b43f
00000010: 06ac e7bd 201d 03bf 2c6d 33bf d129 01c0
00000020: 7bd6 71bf da20 e3bf 4876 be3f f7d0 07bf
00000030: edd5 41bf ebbb 2bbe 6d11 0d40 5d7a f03f
-2.192448 0.5937806 -1.5601946 1.4118798 -0.11312108 -0.51216316 -0.7008846 -2.0181773
-0.94467896 -1.77444 1.4879847 -0.5305323 -0.7571705 -0.16770904 2.2041886 1.8787342

hardtanh_3_bias f4 [24]
00000000: 6079 acbf ad96 193f 42e6 27bf ff17 3dbe
00000010: 6a2d e7bd 1628 30bf fb2d 00bf 011c 813e
00000020: 0d1f 85be 4573 0bbd c9b5 013d 3be7 f53e
00000030: 0834 513e 812b c63f 28fb c03f e0a0 353f
00000040: e4d7 713e a7c5 efbd 925b 09bf 51ec fc3d
00000050: 5173 af3e 791d 873e 819b 343e 82c0 063e
-1.3474541 0.5999554 -0.6558572 -0.18466185 -0.11287959 -0.68811166 -0.5007016 0.25216678
-0.26000252 -0.034045476 0.031667504 0.48027977 0.20430005 1.5482026 1.5076647 0.709486
0.23617512 -0.11707621 -0.5365535 0.12349761 0.34267667 0.26389673 0.17637445 0.13159373

hardtanh_5_bias f4 [24]
00000000: 9666 a7bf 701f 81bf c1ea 793d 68ab 01be
00000010: 60e0 94bf 25bf ab3f 1795 683f 2247 893d
00000020: 27e5 0b3e 2315 ddbd 20af 0bc0 74db 0cbf
00000030: c797 2a3f 0857 9abf 5132 093e 84b7 c0be
00000040: 056c d73e 7b07 0fbf 6736 02bf 4476 cc3e
00000050: 69d0 763f 7845 5d3f a229 12c0 0855 983f
-1.3078182 -1.0087719 0.061014894 -0.12663043 -1.1630974 1.3417708 0.90852493 0.06703021
0.13661633 -0.10795047 -2.1825638 -0.5502236 0.66637844 -1.205781 0.133981 -0.3764001
0.420746 -0.5587079 -0.5086426 0.3993398 0.9641176 0.86434126 -2.283791 1.190095

hardtanh_7_bias f4 [32]
00000000: 8a44 603f b386 053f dc91 27bf 9560 1d3f
00000010: bf51 1f3e 7147 bcbf 0649 89be 5f84 76be
00000020: 1b09 d33c cdd0 d1bf b4b9 563f 3c09 b23f
00000030: 0250 403f fa03 663f 61a4 8e3d 18a7 0abf
00000040: 9b90 343f eb89 a6bd f4c0 013f d525 bcbe
00000050: 95f1 64be fa72 df3e 3c7c 0abf e09a d13e
00000060: 0121 4cbf 4deb 823f cda0 f9bd f693 81bf
00000070: bee5 9b3e 2276 7fbf 9914 4abf ec3b 45be
0.8760458 0.5215866 -0.6545694 0.614755 0.15558527 -1.4709302 -0.26813525 -0.24073933
0.025761178 -1.6391846 0.8387711 1.3909068 0.7512208 0.8984982 0.069649465 -0.54161215
0.7053315 -0.081317745 0.5068505 -0.36747614 -0.22357781 0.43642408 -0.54095817 0.40938473
-0.7973786 1.0228058 -0.121888734 -1.0123279 0.30448717 -0.9978963 -0.7893768 -0.1926114

hardtanh_9_bias f4 [32]
00000000: 53a5 1b3d d49a 4c3e c9cf cbbe 0046 293f
00000010: b5cb 9bbe 3b73 9cbc 7fb9 2e3e 2d8e b0be
00000020: 2846 11bf c317 e83d 3ee4 fe3d 5b0e 52be
00000030: 534c e4be 7e86 0cbf e631 e33c 5e8a ccbe
00000040: 6156 9f3e 151b 25be 2055 1d3e f3ce e33e
00000050: 939a 4e3f 160e a5be f6d9 5d3e c7cb 19bf
00000060: 237a d53d 34a0 16be bde6 d0be db6a f33e
00000070: 64fa ec3e 0763 1bbe 806f 83be da65 023e
0.037999462 0.19980937 -0.39806965 0.66122437 -0.30428854 -0.019097915 0.17062949 -0.34483472
-0.56747675 0.11332657 0.124458775 -0.20513289 -0.4458948 -0.5489272 0.027733754 -0.39949316
0.3112059 -0.16123612 0.15364504 0.44493827 0.8070461 -0.3223731 0.21665177 -0.60076565
0.10423686 -0.1470955 -0.4080104 0.47542462 0.46284783 -0.15174495 -0.25671005 0.12734166

hardtanh_11_bias f4 [32]
00000000: a778 cbbe b0a5 2e3d a3ac 79be 09ad 6c3e
00000010: 1093 853e 803a 953e dcd9 c2be 1cbd 383e
00000020: d50d 36bd e80f 183f c884 723e 2607 293e
00000030: 7aa1 203e eca4 803e 46e1 893e bba3 0abf
00000040: f60d 19bf 714b ecbe b4d5 bf3d aa7d 423f
00000050: ae9a a03e 9690 463e 2a07 cabd a7fc 4e3e
00000060: a1c3 9ebd 126e 13bf e2ae b5be 06fd c33e
00000070: 8955 94be fc9a 00bf e3c7 f03e 7cd1 a5be
-0.39740488 0.04263848 -0.24382262 0.23112883 0.26088762 0.29146194 -0.3805684 0.1804089
-0.044446785 0.5939927 0.23683465 0.16506633 0.15686598 0.25125825 0.26929682 -0.5415608
-0.5978693 -0.46151307 0.093669325 0.75973 0.3136801 0.19391093 -0.09864648 0.20213567
-0.07752157 -0.5758983 -0.35484987 0.3827898 -0.28971508 -0.5023649 0.470275 -0.32386386

hardtanh_13_bias f4 [64]
00000000: ecdb e7be fef6 2fbe af95 54bf fb74 90bd
00000010: e584 f7be 9dc7 e2bd 9ba7 e53d 45cb 7dbf
00000020: 7f48 1dbd be74 0340 3e3c abbf ab12 ae3f
00000030: 0943 953d 2439 f1be 083c c73e 8619 f03d
00000040: c41a 91be 613d 8ebe f6e4 1fbe cb07 91be
00000050: 75a3 60bd b5d8 7cbf 618b 2d3f afc0 f03e
00000060: 98d5 e43d 6759 1fbe 9a68 473f b89b 3bbf
00000070: fa5f 3d3e 8697 8dbf 42ba ee3d bbb1 7e3e
00000080: db51 9c3f 8d9f 043f 78d6 913e 3c92 c6bd
00000090: dd8a d8bd 59f1 e4bc 628d 7abf 2894 19be
000000a0: 38a7 943f ecf1 4d3f b322 21bf 98bf 49bf
000000b0: f7eb 38bf 866e 39bc 2da3 553e f5e7 acbe
000000c0: 2692 483f dd86 a83e c9c3 fa3e f67b 173e
000000d0: 21fc 9a3f 8ce8 013f 342d 693f 1ed8 12bb
000000e0: a38e 783f cd85 7cbf 77c2 6f3e 9409 91be
000000f0: 6d0a 65be 7cc6 033f fc34 823f fa98 45be
-0.45284975 -0.17184064 -0.830409 -0.07053562 -0.48343578 -0.110732295 0.11213609 -0.9913829
-0.038399216 2.0540004 -1.337776 1.3599447 0.072881766 -0.47113907 0.38912988 0.11723618
-0.28340733 -0.27781203 -0.15614685 -0.28326258 -0.054843385 -0.9876817 0.677908 0.47022006
0.11173552 -0.15561448 0.77893984 -0.7328448 0.18493643 -1.1061866 0.116566196 0.24872486
1.221248 0.51805955 0.2848394 -0.09695861 -0.10573361 -0.027947115 -0.97871983 -0.14997923
1.1613531 0.8044727 -0.6294357 -0.78807974 -0.72235054 -0.011317855 0.20863028 -0.3377072
0.78348005 0.32915393 0.48977497 0.14793381 1.2108194 0.50745463 0.910846 -0.0022406648
0.97092646 -0.98641664 0.23414026 -0.2832762 -0.22367258 0.5147474 1.017242 -0.19296637

hardtanh_15_bias f4 [64]
00000000: 550a c1be 9254 2abe c6dd e33d bac8 8f3e
00000010: 1e37 1abe 7566 ad3c 65b7 3b3c ed1d 09bf
00000020: 9628 a3be b1ce 273c 3b45 7fbe bfeb 073e
00000030: b3d0 a13d 5c1e 07be 42d6 8d3d c307 933e
00000040: ae1a 883e c0af 9c3d d889 ba3e 55d7 9fbe
00000050: 3bd0 39be 5a0c e2be 11a7 e4bc cb06 113f
00000060: 834a cb3d eb5e 85be 5559 9e3f cd3b 42be
00000070: a534 6f3e b19c fc3d d991 c33e e9e6 473f
00000080: 69bc f5bd d1e4 2b3e 1959 9ebf 24e0 0ebf
00000090: e4e5 223f b324 1dbd 7efe e63d 1848 8cbe
000000a0: c627 f9bd 18a3 b3be 4dd4 8d3e 3a25 9abd
000000b0: 3492 133f 8bae 323e 26d2 a1bb 642a 4a3f
000000c0: 255c 503e f97a 393e c066 0abe 3488 833e
000000d0: 3814 1a3e c689 6dbe 225a a7be a2eb 033f
000000e0: a3b6 ae3e 6dc2 a5bd 9e75 9c3e b1da 863f
000000f0: ff18 5b3f b0a9 30bf 6c7c f23b f26b 7dbe
-0.37703195 -0.16633824 0.11126284 0.2808283 -0.15060088 0.02116702 0.011457299 -0.5356129
-0.31866902 0.01024215 -0.24928753 0.13273524 0.07901134 -0.13195175 0.06925632 0.2871686
0.26582855 0.07650709 0.3643329 -0.31218973 -0.1814584 -0.44150048 -0.027911695 0.5665099
0.09926321 -0.2604898 1.2371012 -0.18968125 0.23359926 0.12334574 0.3819721 0.78086716
-0.11998827 0.16786505 -1.237094 -0.5581076 0.63632035 -0.038365077 0.11279009 -0.27398753
-0.12165789 -0.35085368 0.27701035 -0.07526632 0.57644963 0.17449395 -0.0049383817 0.7897093
0.2034765 0.18113317 -0.13515759 0.25689852 0.15046775 -0.23197088 -0.32685953 0.5153142
0.34123716 -0.080937244 0.30558485 1.0535489 0.85585016 -0.6900892 0.007400086 -0.24748209

hardtanh_17_bias f4 [64]
00000000: fd3e 943e 412e 0f3e e816 9fbe 5022 13be
00000010: ba3f 8ebe 882d 93be 17b4 833e 749d 903d
00000020: b97a 00bf 846a c33d 60b3 393e 94b4 97be
00000030: b7a7 f1bd 8cf9 9dbe bf41 993d 8319 8b3e
00000040: 3a44 2d3e 9401 a3be 9bcd db3e 0d81 9c3d
00000050: 2639 a43e 40d1 ea3e 1c33 9d3e 7117 12bd
00000060: eccb 743e b6d5 fabd 5112 343e cce8 f2bc
00000070: f50c 443d c7a6 973a bad1 893c 2748 bdbd
00000080: fa10 21bd a32f cdbe bf0e 383e 1af5 59be
00000090: a6ad 47be cb1b ccbe 58a1 fa3d 4a22 a93e
000000a0: 3183 1fbe 40a0 64be b802 433e ecb0 443e
000000b0: 0745 3d3e 36cd 3b3e dd72 adbd 9c11 b23e
000000c0: 82c2 4abe b6f1 83ba 2842 d63c 2681 e4be
000000d0: d9d1 9dbe d25c 93bd 2673 4ebd 1ebd df3c
000000e0: ce7f 143b a088 773d bab1 61be 2d9d 6bbe
000000f0: 6021 7b3f 522f f13e b006 7a3e b135 2cbe
0.28954306 0.13982488 -0.31072164 -0.14368558 -0.27782995 -0.28745675 0.25723335 0.07061282
-0.5018726 0.095418006 0.18134832 -0.29629958 -0.11799567 -0.30854452 0.07483243 0.271679
0.16920558 -0.31837142 0.42930302 0.07641802 0.3207485 0.4586277 0.30703056 -0.035666887
0.23905915 -0.122477934 0.17585112 -0.029652022 0.04786392 0.0011570089 0.016823638 -0.092422776
-0.03932283 -0.40075406 0.17974375 -0.21284905 -0.19499835 -0.39864954 0.12237805 0.33033973
-0.1557739 -0.22326756 0.19044006 0.19208115 0.18483363 0.1834 -0.08469174 0.3477906
-0.19800761 -0.0010066542 0.026154593 -0.44629782 -0.30824164 -0.071954384 -0.050402783 0.027311858
0.0022659185 0.06043303 -0.22040454 -0.23009177 0.980978 0.47106415 0.24416614 -0.16817357

hardtanh_19_bias f4 [64]
00000000: d8b1 8bbe f909 16be f4ec 243e e3f8 0cbf
00000010: b031 163f 826b e0bd b107 1abe 62c2 6f3e
00000020: 9358 20bf a4ac 213f 093b 8fbd 6d9b fabe
00000030: bf6f 0fbf b958 eebe 0b8f cdbe f871 89be
00000040: 4fc9 6e3e ab62 25be 649e 8b3e 7e19 273e
00000050: 283c a83d a0a0 453e 4a01 20bf ea3e 263e
00000060: 67cd c3bc ee61 dbbd 1a5f 9e3e 4fb0 003e
00000070: c3a6 2cbe 742e 80be 677d 4bbd 1301 33bf
00000080: 6ea8 2abf 6921 723e e051 8e3e b816 8e3d
00000090: a5c6 43bd 1ba1 23be 8c63 fabd 1ed4 523e
000000a0: 8012 143f dcf0 923c f0fd 95bb e9f7 c53d
000000b0: 196e b3bd 3eef 31be f3ff 72be 0e2a cabe
000000c0: 6603 763e ea76 adbe 9464 41bd 6e33 37bd
000000d0: 1b9d a4be 6ed6 903e 4786 f43c 602a 4fbd
000000e0: fe73 453e ca0c 96be a25a 4dbf f573 aebe
000000f0: 6377 8f3d 0b56 b9be 67d7 1abd b94e 5e3e
-0.27284122 -0.14652242 0.16106015 -0.5506727 0.5866957 -0.109580055 -0.15041997 0.23413995
-0.62635154 0.63154054 -0.06993682 -0.48946705 -0.56029886 -0.46552065 -0.40148196 -0.26844764
0.2331898 -0.1615092 0.2726928 0.16318318 0.08214599 0.19299555 -0.62501967 0.16234937
-0.023901654 -0.10712038 0.30931932 0.12567256 -0.1686049 -0.2503544 -0.04968014 -0.69923514
-0.66663253 0.23645557 0.2779684 0.06937927 -0.047796864 -0.15979426 -0.12226018 0.20588729
0.5784073 0.017937116 -0.004577391 0.09666426 -0.08761234 -0.1737642 -0.2373045 -0.3948521
0.24024734 -0.33879787 -0.04721506 -0.04472678 -0.32151112 0.28288597 0.029849185 -0.05057752
0.19282529 -0.29306632 -0.8021642 -0.34072843 0.07005193 -0.36198458 -0.03780308 0.21709718
